onnx/lightqnet-dm050.onnx (onnx, 514725 bytes, 69 tensors)

UncertaintyModule/MobilenetV3/expanded_conv_9/project/Conv2D_weights_fused_bn f4 [48, 288, 1, 1]
000000 2f b9 93 3d f0 3c b9 bd 55 be d5 3b 90 b6 e9 bd
       0.07213055 -0.09044826 0.0065229335 -0.11411774
000010 94 32 90 3d 13 c8 2c 3d f1 01 c7 bd 91 f1 89 3c
       0.07040897 0.042182993 -0.09717167 0.01683882
000020 43 2e cd bb 4d 6a c5 3d 9f 9a 87 bb 6c 29 e0 3d
       -0.0062616183 0.09639416 -0.0041383053 0.109454006
000030 a8 41 23 bd 61 11 2e be f3 7a 2d 3e 00 5f 2a 3e
       -0.039857537 -0.16998817 0.16941433 0.16637802
000040 ba 6c 16 bb 72 40 21 3e 1e 26 93 3c 42 3d e7 3c
       -0.002295299 0.1574724 0.017962512 0.028227452
000050 75 da 69 3c 30 3b ea bc 4c ed 86 3d 74 d0 ba bd
       0.014273276 -0.028592676 0.065882295 -0.091217905
000060 c3 46 8b 3c 33 61 bf bd 1a c7 34 3c ce a3 a1 bd
       0.017001515 -0.09344711 0.011033798 -0.078925714
000070 f4 3a ae bc 40 bc 92 bc b9 38 f2 bc 17 7e 20 3d
       -0.021268345 -0.01791203 -0.029568063 0.03918275
000080 c6 3f 52 bd a0 07 08 bd d5 25 08 3e 0c 15 f1 bc
       -0.05133035 -0.033210397 0.13295682 -0.029428981
000090 8d 75 e7 bc e3 17 8a bd 01 42 d9 3d 21 5a 6c bd
       -0.028254295 -0.06742837 0.10608292 -0.05770314
0000a0 6c c6 13 bd da 9e a7 3c e9 a6 43 3d d2 d6 0d bc
       -0.0360779 0.020461489 0.0477666 -0.008657174
0000b0 6e 9e ec bc 5d 88 1d 3d 54 84 47 3d 12 4b b5 3d
       -0.028884139 0.038460124 0.048710182 0.08852209
0000c0 d7 9f 44 3d 55 a9 b0 bd 7b 0c 10 3c a0 13 b8 3d
       0.048003998 -0.086260475 0.008792038 0.08988118
0000d0 b6 f0 17 3d 98 63 bf bc 10 80 c2 3d 59 1a ca bc
       0.037094794 -0.02336292 0.09497082 -0.024670767
0000e0 b0 22 1c 3e 2f 0a 9b 3d 98 bb 7a 3d 0c 83 6b 3d
       0.15247607 0.07570302 0.06121406 0.057498023
0000f0 c4 a6 0b 3d a9 b6 c7 bd 26 45 80 3d fd 2a ff bc
       0.034094587 -0.097516365 0.06263189 -0.031148428
000100 91 e2 b7 3d 87 a3 d1 3d 12 e7 9b bd 34 bb b1 bd
       0.08978761 0.102362685 -0.076124325 -0.08678284
000110 48 1e 5c bd da e6 3a 3d f3 74 7f 3d 79 cc 8b bb
       -0.053739816 0.045630313 0.06236739 -0.0042663184
000120 cb 39 7e bd 8b e1 e2 bd f5 94 e3 3d 76 68 d1 bd
       -0.062066834 -0.11078175 0.11112396 -0.102250025
000130 96 ec d9 bb 1b 1f d8 bd f0 77 c1 3d 51 cc 26 3d
       -0.0066505177 -0.10552808 0.094467044 0.040722195
000140 ec 48 50 3d 41 2c 30 3d 6c eb 3a bd 65 66 c8 3d
       0.050850794 0.043010954 -0.045634672 0.09785155
000150 97 b1 32 bd 62 28 f7 3d 19 af 1b 3a 86 8c 22 3d
       -0.043626394 0.12068249 0.00059388723 0.039684795
000160 59 57 68 3d 54 45 c2 bd ce 81 47 bd e0 96 1f bd
       0.056723926 -0.094858795 -0.048707776 -0.038962245
000170 5e aa 58 3a ff 96 c4 bd 31 4c 21 3e 71 70 ad bc
       0.0008265133 -0.09599113 0.15751721 -0.02117178
000180 40 8b 98 bc 64 32 3b be 33 46 b3 3c b6 4e a0 3d
       -0.018621087 -0.18280941 0.02188406 0.07827513
000190 43 d6 31 3e ff 60 2e 3c 77 e7 4a bd cc 65 2a be
       0.1736689 0.010643243 -0.04953715 -0.16640395
0001a0 1c da d1 3d 2b 59 01 be c8 f4 43 3d 51 2e e2 bb
       0.10246679 -0.12631671 0.047840863 -0.006902494
0001b0 81 78 52 bc c7 73 d4 3d f8 66 84 bd bd b3 76 bb
       -0.012846113 0.10373645 -0.06464952 -0.0037643753
0001c0 5d b3 2f bd 63 96 b3 bc b7 5e ec 3c 24 81 d4 bd
       -0.042895664 -0.021922296 0.028853757 -0.10376194
0001d0 57 32 47 3d 52 72 92 bd f1 a6 5b 3d 64 91 8f 3d
       0.048631992 -0.07150711 0.053626005 0.07010153
0001e0 f2 bb 43 3c c5 7a 17 3c bd 67 81 3c bb 4c ea 3d
       0.011946665 0.009245579 0.015796537 0.114404164
0001f0 64 22 b6 bd 14 97 e5 3c 96 6e b5 bd 57 d9 16 3d
       -0.08893278 0.028026141 -0.08858983 0.036828365
000200 a1 39 fc bc 09 2b 46 3d 91 26 68 3e 4d 96 80 bc
       -0.030789198 0.048380885 0.22670962 -0.015696669
000210 0d a5 61 3c 21 0b 56 bc 35 a5 95 3d e0 c8 72 3d
       0.013772261 -0.013064177 0.07306901 0.0592736
000220 21 66 e6 bb 2b 84 b7 3d c6 4e f5 ba 2e 05 c5 bd
       -0.0070312177 0.08960756 -0.0018715493 -0.096201286
000230 0f 42 08 bd 81 fe 5b 3c fb a4 18 3e 0d 49 46 3e
       -0.033266123 0.013427378 0.14906685 0.19363804
000240 d6 fb 99 bd 8e 49 24 bb f0 63 a8 bd 91 e2 5c ba
       -0.07518737 -0.0025068256 -0.082221866 -0.0008426095
000250 d3 93 17 bc 28 dd 36 3d 90 d8 7a 3d 18 df 4e bd
       -0.009251553 0.044644505 0.061241686 -0.050505728
000260 ac 4b 43 3b e8 26 85 bb c5 f5 29 3d ce 78 63 3d
       0.0029799743 -0.004063476 0.04149415 0.05553513
000270 89 4e 25 bc 0e f1 8b 3c 31 ca f6 bd 40 99 fb bd
       -0.010089525 0.017082717 -0.12050284 -0.122850895
000280 86 e6 8e bb 5a f8 4d 3e 32 fb 34 be f7 e4 ec bc
       -0.0043609766 0.2011427 -0.17673948 -0.028917773
000290 82 ab 05 be c5 f3 9c 3d 35 74 97 3d e3 b2 4a bc
       -0.13053706 0.07663683 0.073952116 -0.0123717515
0002a0 68 b8 fb bd 92 87 51 3d ff 3f 09 be 78 58 60 3d
       -0.12291032 0.05115468 -0.13403319 0.05477187
0002b0 51 69 d3 3d 4a d3 19 3e d2 56 97 bd b7 6b 0b 3d
       0.10322822 0.15022007 -0.073896065 0.03403827
0002c0 93 ef f8 bd 4e af 80 bc 43 d1 17 bc 27 05 37 3d
       -0.1215507 -0.015708592 -0.0092662005 0.044682648
0002d0 bc 51 78 3d d3 90 96 3c f8 2c c7 3d 9d 36 ca bc
       0.060624823 0.018379604 0.09725374 -0.024684245
0002e0 8a 03 1d 3d 4c 3a eb 3c 85 d6 1b 3d 08 23 e5 bc
       0.038333453 0.028714322 0.03804638 -0.027970806
0002f0 d9 28 aa 3d 45 f6 b4 bd b9 ba 15 be 5f 74 06 be
       0.08308572 -0.08836035 -0.1462201 -0.1313033
000300 58 e8 7f 3c 55 1a 30 3e 46 57 28 be db ef 8a bd
       0.01561936 0.17197545 -0.16439542 -0.0678403
000310 e9 0a 12 be a1 48 29 be bf 42 3e be c9 f7 6a 3c
       -0.14261974 -0.16531612 -0.18580149 0.014341303
000320 19 a0 55 3d c1 38 81 bd 36 66 3d be cc f7 42 3c
       0.052154634 -0.06309653 -0.18496022 0.0118999
000330 41 ce 33 3c 84 44 24 bc 57 b4 0a 3e 8b 35 2b 3d
       0.010974468 -0.010026101 0.13545357 0.04179911
000340 22 fc b4 3d bb 13 98 bd cb d1 84 bd 52 eb ca 3b
       0.08837153 -0.07425638 -0.06485327 0.006192603
000350 d4 6a e7 bd c5 82 b9 bd 07 86 8c 3c 7a 30 1e be
       -0.11299673 -0.090581454 0.017153753 -0.1544818
000360 6f 54 a3 3d 13 5b d0 3d 65 2d 4b 3d f1 00 9e b9
       0.07975089 0.10173621 0.04960384 -0.0003013681
000370 41 b2 87 bd 58 7f 52 bc 00 4b 2a bd 85 61 a7 bd
       -0.06625796 -0.012847744 -0.04157543 -0.08172897
000380 d8 cc 1f bd 9e d9 aa bd 91 73 1e bd 42 a0 8c 3d
       -0.039013714 -0.083422884 -0.03868443 0.06866504
000390 a3 b5 f9 bd e2 e5 12 3e 7f a9 12 bd 21 3f cc 3d
       -0.121928476 0.14345506 -0.035806175 0.099729784
0003a0 2d 6e 46 bd 06 72 94 3d 25 d3 11 3c 4b c1 a0 3c
       -0.048444916 0.07248311 0.008900438 0.01962342
0003b0 ad bc 06 bc d5 fb 3f bd cc d5 09 bc 2a 11 da bc
       -0.008223695 -0.046871025 -0.00841279 -0.026619513
0003c0 ac 00 a0 bb 86 e6 71 b9 ff 60 cc 3d 02 7b 0e 3e
       -0.0048828926 -0.00023069428 0.09979438 0.13914111
0003d0 3e be 96 3c 73 fc 8f 3d 59 e0 a6 3d c7 52 6f 3d
       0.018401261 0.07030573 0.0814826 0.058428552
0003e0 5b 3c 9e 3d c3 3a a1 3d bd fc 30 3e b2 f8 25 be
       0.07726356 0.07872536 0.17283912 -0.16208151
0003f0 a1 a9 8a 3c 12 aa d1 bd 9d 22 ac 3d 9e 3e db 3b
       0.016926588 -0.102375165 0.084050395 0.006690814

UncertaintyModule/MobilenetV3/expanded_conv_9/project/Conv2D_bias_fused_bn f4 [48]
000000 d9 3b c1 be 93 64 c3 be 6a 09 cf be bc 41 63 3e
       -0.37740973 -0.3816267 -0.4043687 0.22193044
000010 5d ec c1 be b3 c4 a0 be 0f fb 16 be b2 be f6 bd
       -0.37875643 -0.3140007 -0.14744209 -0.12048091
000020 f8 15 8d 3e 43 9e 22 bf c7 9f 46 be ee fa 9b 3e
       0.27555823 -0.6352274 -0.19396888 0.30464882
000030 c3 0b 4c be 0d c5 70 be 40 65 a0 3e 19 8c 9e be
       -0.19926362 -0.23512669 0.31327248 -0.3096626
000040 4c 25 73 3f 6f 8f 00 3f 8f 6f 0b be b1 d2 eb 3e
       0.94978786 0.5021886 -0.13616775 0.46059182
000050 ea 1e 3f 3e 5b bf a8 3f f7 2a ab 3e c6 23 82 3e
       0.18664137 1.3183397 0.33431217 0.25417918
000060 17 51 b9 be f6 cb a2 3e e4 79 00 3e 52 eb 99 3e
       -0.3619468 0.31796235 0.12546498 0.30062348
000070 93 92 70 bc 53 1c 40 be 4f a4 84 3e 37 ed 40 3d
       -0.0146833835 -0.18760805 0.25906608 0.047101226
000080 a2 56 2c bf e4 f7 fa 3e 02 49 08 3f f0 95 1f 3f
       -0.6731969 0.4901725 0.532364 0.6233816
000090 df d6 be bd 73 95 e3 bd a8 0c 1b 3f e4 40 90 3f
       -0.09318327 -0.111124896 0.60566187 1.1269803
0000a0 f5 ea 93 bd 81 0f 9b 3f 19 65 b0 3e 57 67 10 bd
       -0.07222549 1.2114106 0.3445213 -0.035254803
0000b0 2e 33 af 3d 0b 04 9e bd 0e bc 1c 3e 36 0b 84 3f
       0.085546836 -0.07715615 0.15306112 1.0315921

UncertaintyModule/MobilenetV3/expanded_conv_9/expand/Conv2D_weights_fused_bn f4 [288, 48, 1, 1]
000000 54 51 9a 3b c5 98 0e 3e ec 09 0f 3e 98 6f 5c 3d
       0.004709402 0.13925464 0.13968629 0.05381736
000010 96 f2 be bd 79 65 21 3d 70 33 3a be 5e 93 a3 3c
       -0.09323613 0.039403412 -0.18183684 0.019967731
000020 1e e9 f5 3d a9 3a bb b9 00 24 90 3d 51 29 0f be
       0.12007354 -0.00035711125 0.070381165 -0.13980605
000030 cc 5d 9b bd db a4 32 3e 67 13 16 3e 56 c0 0c be
       -0.0758625 0.174457 0.14655839 -0.13745245
000040 8c 12 8d 3d cb fb 59 bd 44 31 f5 bc 26 52 a8 3c
       0.06888303 -0.053218644 -0.029930718 0.020546984
000050 b9 03 16 be ef 73 7a bd 2f cc e1 3d 7d df 27 3e
       -0.14649858 -0.06114572 0.11025273 0.16393848
000060 b0 fd 06 3d 05 61 b0 3d 0a f7 21 be a6 c3 e5 3d
       0.03295678 0.08612255 -0.15816894 0.112189576
000070 50 ee 19 bd 4c 85 e0 3d a6 3e 24 be ed 6e 45 3d
       -0.037580788 0.10962924 -0.16039523 0.04820149
000080 7d 86 1e 3e 7c 2d 64 3e a0 54 b4 bd cb 8b a7 3b
       0.1548099 0.22282976 -0.088052034 0.0051131
000090 d5 8c 68 3e be 7e b6 3d 70 95 a6 3d 1c cd 58 bd
       0.22709973 0.08910893 0.08133972 -0.052929983
0000a0 39 59 f1 3d 13 1a 95 3c ad 45 3c be bc 89 4e 3d
       0.11784596 0.01820091 -0.18385954 0.050424322
0000b0 79 6a 0e 3d ee 56 ee 3d 0f a0 3d 3d d4 61 80 be
       0.03476951 0.11637674 0.046295222 -0.25074637
0000c0 25 df 99 3e 40 83 42 bd a4 85 1f 3c aa a0 0c 3e
       0.30053058 -0.04748845 0.009736452 0.13733163
0000d0 74 83 ab 3c aa 9f 0c 3e 7d de 75 be 72 99 56 3e
       0.020936705 0.13732782 -0.24010654 0.20956972
0000e0 6f 33 06 3e 33 16 39 be 90 9e 04 be e9 22 f6 bd
       0.13105558 -0.18074875 -0.12951112 -0.12018377
0000f0 14 6c 8b be 73 be 2a be d6 f0 7f 3e 49 ae 1c be
       -0.27230895 -0.16674213 0.24994215 -0.1530086
000100 84 4b 11 3d db 29 e3 bd 4e f0 35 3e cb 48 e5 3d
       0.035472408 -0.11091968 0.1776745 0.11195525
000110 d7 90 bf bd 57 c3 77 bc 97 50 85 bd 21 74 e7 bd
       -0.09353798 -0.015122256 -0.06509512 -0.11301447
000120 b0 54 75 3e f3 c6 24 bd 54 23 11 bc 76 ba 9a 3e
       0.23958087 -0.040228795 -0.008858521 0.30220383
000130 a8 c4 1e 3e 57 dc 23 be ab dd 03 3e bc 92 45 be
       0.15504706 -0.16002022 0.12877528 -0.19294256
000140 55 55 46 3d 3a 93 94 3d d3 49 d8 3c dc b9 ce bd
       0.048421223 0.07254644 0.02640239 -0.100940436
000150 78 78 5b 3e c2 5f 20 bd a4 b5 86 bd c2 d5 b5 bd
       0.21432674 -0.03915382 -0.06577614 -0.08878662
000160 76 1a 33 3e c0 19 a9 3e 10 28 71 3d 66 c5 5a 3e
       0.17490563 0.33027458 0.058876097 0.21364364
000170 d8 ef 21 bc 1d ba f0 3d c0 bb fd bd 0b 72 55 3c
       -0.009883843 0.11754248 -0.12389326 0.013027678
000180 80 8e 79 bd eb 63 5a bd bf 42 88 3d 93 aa 9b be
       -0.060926914 -0.053317945 0.06653356 -0.30403575
000190 be a2 a8 bd 3e c4 5b 3d 8c d7 5d be 4b ae 83 bd
       -0.082341656 0.053653948 -0.21664256 -0.06429728
0001a0 92 07 31 3c 4a d6 9d bd 9a 14 51 bd 15 24 ce bd
       0.010805028 -0.07706888 -0.051045038 -0.10065476
0001b0 e0 c2 4b 3e b9 a4 38 3e a8 b7 a1 3e 03 8e 46 3c
       0.19898558 0.18031587 0.3158543 0.012118819
0001c0 d9 d5 b9 bd ef 34 23 be 89 be f9 3d bc b7 24 bd
       -0.09073991 -0.15938161 0.12194545 -0.040214285
0001d0 f1 41 88 3c c7 2b 8e 3d 7e 47 43 3e 00 a8 25 be
       0.016633006 0.069419436 0.19070241 -0.16177368
0001e0 99 23 d8 bd cf 12 89 be b2 d4 63 bd 46 8e 0b 3e
       -0.10553665 -0.26772162 -0.055622764 0.13628492
0001f0 6d 25 6a 3e 67 d4 0b 3e 32 5c 2b be f2 94 82 bd
       0.2286584 0.13655244 -0.16734388 -0.06376065
000200 b3 90 00 be 94 31 16 bc 52 ee 7d 3e 06 2f 9f be
       -0.12555198 -0.009167094 0.24797943 -0.31090564
000210 14 60 23 3d 66 88 2d 3e f7 b6 64 3d d1 d9 27 bd
       0.03988655 0.16946563 0.05583855 -0.04097921
000220 f1 08 18 bd 07 9b 1c 3e b2 16 a8 3d 28 82 11 bd
       -0.037117902 0.15293513 0.08207454 -0.035524517
000230 6f 07 13 ba 48 1f 36 3d 8e 67 97 be 9b 94 84 3d
       -0.00056087127 0.044463426 -0.29571193 0.06473657
000240 50 5c 06 3c 5e 46 51 bd 72 1d 66 3d 8b a9 c9 3d
       0.00820072 -0.051092498 0.056180425 0.09846791
000250 15 83 36 be 38 41 a0 bd ae 50 1e be 71 66 58 be
       -0.17823441 -0.078249395 -0.15460464 -0.21132828
000260 f6 16 f2 3d 48 a4 2c 3e e7 72 fd 3c 99 aa a0 bd
       0.11820786 0.16859543 0.030938579 -0.07845039
000270 df 7e 2b 3e 9b 85 3c be d0 b1 05 3e 02 f5 ce 3c
       0.16747616 -0.18410341 0.13056111 0.025263313
000280 9b 02 93 bd 9a f0 a3 be ca 91 db be a6 ca a3 3d
       -0.07178231 -0.32019502 -0.42884666 0.079976365
000290 b8 af 8b 3d da 02 16 bd 91 0d 9c bd ca 12 b7 3d
       0.06820625 -0.036623813 -0.07619775 0.089391306
0002a0 80 da 84 bd ac 13 24 3e 16 45 01 3e 38 5c 01 3e
       -0.06486988 0.16023129 0.1262401 0.12632835
0002b0 83 32 3a 3e 82 e7 89 3e cb ec ad be 29 ae 32 bd
       0.18183331 0.2693444 -0.3396972 -0.043623123
0002c0 b2 b4 93 be cf 55 02 3d ea a2 6c 3c eb c1 8f be
       -0.28848797 0.031820115 0.014443139 -0.28077635
0002d0 69 6b 0c bc 16 ae 31 be 32 fb b1 3e a2 97 1e 3c
       -0.00857053 -0.17351565 0.3476196 0.009679707
0002e0 e0 70 2e 3e f0 55 74 bd d3 af 6c bd c3 e6 5a 3e
       0.17035246 -0.05965227 -0.057784867 0.21377091
0002f0 c7 12 65 be 06 27 61 be e9 d7 62 3e b9 f6 12 be
       -0.22370444 -0.21987543 0.22152676 -0.1435193
000300 6e 91 19 3e d4 95 9b 3d 48 09 64 3e 91 86 f0 3d
       0.14996883 0.07596937 0.22269166 0.117444165
000310 2a 4c e5 bd b7 5a 38 be 24 f6 b8 3d 05 0a 34 be
       -0.11196168 -0.18003355 0.090313226 -0.17581947
000320 8b 36 63 3d cd 6e 0b 3e f5 f2 e5 bd f5 fc 36 3d
       0.055471938 0.13616486 -0.11227981 0.044674832
000330 2c 75 28 3e 99 47 0c be 6e 76 58 3d 78 6d 29 3d
       0.16450948 -0.13699187 0.05284732 0.041364163
000340 8d 74 15 3d da a9 04 bd a1 44 58 3e 37 48 9f bd
       0.036488105 -0.032388546 0.2111993 -0.07777446
000350 dd 59 0c be 3a 1b 5b 3e 1f c2 c1 bd 6b 12 81 be
       -0.13706155 0.21397105 -0.09460854 -0.25209364
000360 31 0a d4 bc 78 63 26 3e 2c 39 0a 3e c1 bb 19 3e
       -0.025883766 0.16248882 0.13498372 0.15013029
000370 6c fd 6d be b4 50 01 3d 74 9f 2b 3d 44 69 50 be
       -0.23241204 0.031571105 0.041900113 -0.20352656
000380 9a 8d bd 3a b6 03 35 3c 28 7a 1b 3e bb e5 47 3b
       0.0014461756 0.011048248 0.15183318 0.003050192
000390 c1 2c 32 bd ce 3b d6 3d d1 29 86 3e 3c 8c 3d be
       -0.043499712 0.104606256 0.26203778 -0.18510526
0003a0 cb a3 a3 bd 61 4b 36 be b2 91 d3 3c 7f aa 3b 3e
       -0.079902254 -0.17802192 0.025826309 0.18326758
0003b0 d1 a3 5a be 18 34 b3 3e 0a b9 10 be 53 2e 8a 3e
       -0.21351553 0.35000682 -0.14133087 0.26988468
0003c0 20 b6 90 be ce b3 f0 bc 99 cf b2 3e 49 5e bf bd
       -0.2826395 -0.029382613 0.3492401 -0.09344155
0003d0 33 be 2b be 9c ae 8c bd 49 58 b1 bb 9a f6 b3 bd
       -0.16771774 -0.068692416 -0.0054121357 -0.0878727
0003e0 86 58 b2 3d 11 20 5e be 97 0e 47 bd 78 83 34 bd
       0.08708291 -0.2169192 -0.0485979 -0.04407069
0003f0 dc b7 00 3e 10 ae 1a be 46 6b 66 3a 7c c0 54 3e
       0.12570137 -0.15105462 0.00087897887 0.20776552

UncertaintyModule/MobilenetV3/expanded_conv_9/expand/Conv2D_bias_fused_bn f4 [288]
000000 a7 e4 17 3c 26 e9 07 3b 9a ba 0d bc 6e 57 24 bc
       0.009270824 0.0020738333 -0.008650446 -0.0100306105
000010 71 92 a1 3c ac 90 81 ba 59 2c 48 3c 0e cf f7 3b
       0.019723149 -0.0009885035 0.012217605 0.0075625246
000020 17 4b fd 3c a1 b0 59 3c e2 5c 9f 3c 55 26 f8 3c
       0.030919595 0.0132867405 0.01945347 0.030291716
000030 e8 b7 1b 3c 46 ba b8 3c 0d ed 45 3c 81 e2 d7 3c
       0.009504296 0.02254976 0.012080443 0.026353123
000040 88 95 7c 3c d3 a2 9e 3b 43 fa 0d bd 57 2a b5 3c
       0.01541651 0.0048411875 -0.034662496 0.022114916
000050 ed ec 32 3c 22 a8 9e 3c 60 3a 1a 3c 55 51 7c 3a
       0.010920745 0.019367281 0.009413332 0.00096251565
000060 bb ce 91 ba 8e 81 7e 39 c9 3d 48 3b 25 35 d2 3b
       -0.0011124233 0.0002427159 0.0030554405 0.0064150267
000070 4b 6c 4f 3c c4 0d 89 ba d0 05 8e bb 0f 37 6b 3c
       0.012660096 -0.0010456373 -0.004334189 0.014356389
000080 cc 96 bc 3c fb a1 02 3c 6f 71 93 3c b7 b5 13 3c
       0.023021124 0.0079731895 0.017998425 0.009015492
000090 ac eb 8d 3c 4a e8 37 bc d5 dd 05 bc 9b b4 7e 3b
       0.017324291 -0.011224816 -0.008170565 0.0038864973
0000a0 1a a1 a1 3c 05 35 b8 3b 68 2e c2 ba 3c 13 86 bb
       0.01973014 0.005621555 -0.0014814856 -0.0040916484
0000b0 1f 2d 6e 3c 56 25 22 bb 5d 09 de 3c 4d ab 5b 3c
       0.014537125 -0.0024741492 0.027104074 0.0134075405
0000c0 89 c2 d1 bb 25 58 0f bd b2 2d 13 bc 2b 7a db bb
       -0.006401364 -0.03499617 -0.008983063 -0.006697913
0000d0 44 d0 4d 3c 0d 22 9b 39 2b 6e e1 3c c0 c0 51 bc
       0.012561861 0.00029589274 0.027518352 -0.012802303
0000e0 fc ef 99 ba 7c 40 77 b9 4a 48 fc 3c 90 ca 88 3c
       -0.0011744495 -0.00023579778 0.030796189 0.016698152
0000f0 4d 9a d5 3c 80 62 be ba a2 bd cd 3b 70 34 8c 3a
       0.026074553 -0.0014525205 0.0062787095 0.001069678
000100 6a 88 90 3c fe 65 6a 3c 8e fa 30 3c fa 17 52 bc
       0.017643172 0.014306543 0.010801924 -0.012823099
000110 43 05 ba b8 13 93 bc 3b 7e ab fb 3b 10 cf 02 3d
       -8.870151e-05 0.0057548373 0.0076803556 0.03193575
000120 1c 92 9a 3c f2 a6 59 3c df 7d 93 3c 43 f2 0a 3c
       0.018868499 0.013284432 0.018004356 0.008480611
000130 9f cf 19 3c 85 10 2d 3c 90 08 86 3c 2d 9c d4 3b
       0.00938788 0.010563021 0.016361505 0.006488344
000140 86 76 1b 3c 5c 17 cc 3c 24 a5 dc ba 07 e4 44 bc
       0.009488707 0.024913482 -0.0016833884 -0.012017257
000150 70 6d 22 bc da 49 86 bb eb 0d 6c 3b 9f 19 3a 3c
       -0.009913787 -0.0040981593 0.0036019038 0.011358648
000160 e5 29 81 3c 15 65 5e 3c d3 81 ef 3b db 3d 06 3b
       0.015767047 0.0135739045 0.0073091774 0.0020483646
000170 bd a8 a2 3c 1b 4a a4 3d 99 9d c8 3b 71 e9 39 3c
       0.019855851 0.08021947 0.0061223027 0.011347161
000180 80 1f 6c 3c fb 0c 85 3c 89 e1 96 bc f0 29 91 3b
       0.014411807 0.016241541 -0.01841809 0.004430048
000190 45 6d 00 3d fd d4 06 3d 81 01 b6 3b 30 fe 80 ba
       0.031354208 0.032917965 0.0055543785 -0.0009841379
0001a0 d1 e2 c4 ba 18 cc d0 bb b9 78 25 3d 53 0c 5b 3b
       -0.001502121 -0.006371986 0.040398333 0.0033424094
0001b0 95 4c b2 bc a8 e9 f5 3b f5 cb 2c 3c bd 0d f9 3b
       -0.021765033 0.0075046606 0.010546674 0.0076005147
0001c0 7a 2a 02 3c 50 f6 e1 bc 08 56 02 3d 1c 80 94 3c
       0.0079446975 -0.027583271 0.031820327 0.018127494
0001d0 91 0f d3 ba b8 00 cf 3c 24 9e 69 3c 7a e3 b3 3c
       -0.0016102662 0.025268897 0.014258895 0.021959055
0001e0 2c 42 0b bc b5 3a aa 3c ea 08 06 3c 26 32 2a 3c
       -0.008499663 0.020779947 0.008180836 0.010387933
0001f0 6b ec c6 3c 47 08 9d 3c d9 a6 50 3c 56 5d 17 3c
       0.024282655 0.019168986 0.012735092 0.009238562
000200 36 17 fa 3a a1 0a 0e 3d 91 31 56 3d 51 6c d8 bb
       0.0019080404 0.034678105 0.052293364 -0.006604709
000210 4a c7 07 3c 7b 59 1b 3d c3 85 40 bc 9b 90 12 3a
       0.00828726 0.037927132 -0.011750641 0.0005591006
000220 c6 ce 3e bb de 4b 9b 3b 2b 24 91 3d b7 64 e2 3b
       -0.0029114946 0.0047392687 0.070869766 0.006908979
000230 7e 21 29 3c de e3 24 3d f4 9b 93 ba c0 8e 9b bc
       0.010322927 0.040256374 -0.0011261688 -0.018988967
000240 b0 32 65 bb 36 c5 c5 3c 37 05 99 3b 4f 9b ce 3b
       -0.003497284 0.024141889 0.004669811 0.0063051353
000250 06 57 22 3b bf 17 4a bc f5 5d ab 3c 68 41 e2 3b
       0.0024771108 -0.012334763 0.020918826 0.0069047697
000260 dd 30 8c 3a be 76 7e bc e3 a7 18 bc 30 e1 77 bb
       0.0010695715 -0.01553124 -0.009317371 -0.0037823431
000270 51 96 0d 3a 3c 1d c4 bb f2 b4 98 bc d0 05 4f bb
       0.0005401122 -0.0059849303 -0.018640969 -0.0031589158
000280 57 48 da 3c 22 5f a6 3c 3e cb 28 bb ed 03 58 bb
       0.026645822 0.020309035 -0.0025755907 -0.0032961324
000290 75 11 01 3c d0 ae 88 3b 28 9f 12 3b 95 31 a8 3c
       0.007877697 0.00417123 0.0022372697 0.020531455
0002a0 70 a4 f6 39 b1 2b 5c 3c 70 0c db 3b f4 c4 57 3b
       0.00047043292 0.013438151 0.0066848323 0.003292379
0002b0 37 0a f3 3b 01 30 45 3c 37 2d dd bb 18 80 06 3c
       0.007416989 0.012035371 -0.006749775 0.008209251
0002c0 5f 51 1e 3d ff ac b1 3c f4 b5 f1 3c bb ea d4 3a
       0.03865182 0.021688936 0.029505707 0.0016244272
0002d0 87 a3 ac 3b d1 4f f6 3b c4 45 c8 3b d1 60 5d 3b
       0.0052685174 0.007516839 0.0061118323 0.003377963
0002e0 71 72 1a 3d 1f 98 83 bc c6 2e 1b 3c 2e b0 1c bb
       0.037706796 -0.016063748 0.009471601 -0.0023908722
0002f0 5a 43 a4 3c 6a 12 85 3b 6f dc 59 3c 0c aa 52 3c
       0.020051647 0.004061033 0.013297184 0.012857925
000300 0d dc ea 3b ff 8c 01 3d 3f f0 77 bc bc a0 3f 3d
       0.0071673454 0.031628605 -0.015132963 0.046784148
000310 7e 45 39 3a df 81 b8 bb 76 97 67 3c 4e ea da 3b
       0.0007067545 -0.005630716 0.014135232 0.0066807633
000320 fc b6 56 bc 11 f2 c2 3c 98 6f 27 bc 11 83 aa 3a
       -0.01310515 0.023797067 -0.010219477 0.0013009032
000330 33 a9 ff 3c d6 7e 2b bc 29 76 95 3c ec c1 3c bb
       0.03120861 -0.010467252 0.01824482 -0.002880211
000340 18 5c c4 3c e8 fb c4 bc 78 a7 35 bb 15 8a c5 3c
       0.023969695 -0.0240459 -0.0027718227 0.024113694
000350 de 4e 69 3b aa 65 16 bc 2a 53 99 3c eb 8b 50 3d
       0.0035599987 -0.009179512 0.018716414 0.050914686
000360 0a 05 1f ba f3 4f b9 3b 7e 5a 6e ba ef b6 0e 3c
       -0.00060661195 0.0056552826 -0.0009092464 0.008710607
000370 c4 3a be bb 61 e8 ab 3b 11 aa 01 3c 81 0f 01 3c
       -0.0058053453 0.0052462076 0.007914082 0.007877232
000380 ef 02 5a 3c df 16 8b 3c c1 1f 6f 3c dd 96 00 3c
       0.0133063635 0.01697868 0.014594973 0.007848469
000390 53 64 03 3c 4c 94 02 3b a2 13 ef ba 46 dd c0 bb
       0.008019525 0.0019924818 -0.0018240104 -0.005885753
0003a0 3a e7 c4 ba c4 cc 7d 3a 83 ec d4 3b b9 d0 f9 3b
       -0.0015022524 0.00096816965 0.006497921 0.0076237586
0003b0 ab d2 ae bc 56 dd f0 bb ff a2 c5 ba 43 36 7d bb
       -0.021340689 -0.007350604 -0.0015078484 -0.0038637079
0003c0 da 82 0d bb e3 60 5c 3c b6 c3 03 3c e6 d2 ce 3b
       -0.0021592886 0.013450834 0.008042267 0.006311762
0003d0 a7 43 81 3c c7 15 9d b8 cc 93 d8 39 64 09 4a 3c
       0.01577933 -7.4904e-05 0.00041308848 0.01233134
0003e0 c5 37 81 3c bd ce 66 bb 95 d5 31 bc 44 52 07 3d
       0.015773663 -0.003521844 -0.010854145 0.03303744
0003f0 e4 37 15 3d 5c 2b 84 bc 86 64 d0 3c 22 e6 38 3c
       0.036430255 -0.016133957 0.025438558 0.011285337

UncertaintyModule/MobilenetV3/expanded_conv_9/depthwise/depthwise_weights_fused_bn f4 [288, 1, 3, 3]
000000 05 12 52 3f 02 bb 6d 3e fd fe 92 3e d3 8d be be
       0.82058746 0.23215869 0.28710166 -0.37217578
000010 1f 56 19 be 08 d6 d3 be 58 92 55 3f 77 e9 08 bd
       -0.14974259 -0.4137423 0.8342643 -0.033425774
000020 73 51 39 be 9e be d6 be b9 fa 8c 3f 8b 76 55 bd
       -0.18097477 -0.41942304 1.1014014 -0.052115005
000030 b1 a9 d9 3e c4 b5 c0 3e 88 55 09 3d 30 0c 8b 3f
       0.42512277 0.37638676 0.033528835 1.0863094
000040 41 e1 0a bf 13 0a 1e 3f 00 50 53 bf 41 37 99 bf
       -0.5424996 0.6173412 -0.82543945 -1.1969987
000050 5d b9 8c 3f d1 e9 c6 3e 6f b0 bb 3d 9c 7e 15 bf
       1.0994068 0.38850263 0.091645114 -0.58396316
000060 84 5d 86 3f 6a ec 54 3f a2 20 14 bf 17 e6 91 be
       1.0497289 0.8317324 -0.57862294 -0.28495857
000070 74 ff 9a be cd a9 d5 be 65 a9 c2 3e 36 97 5b 3f
       -0.3027302 -0.4173111 0.38019863 0.85777605
000080 a8 2a f0 be 9d 0c 6e 3f 2e 13 ac be 5c b5 f5 be
       -0.46907544 0.92987996 -0.33608383 -0.4798993
000090 98 3c 63 3e 95 a3 65 be 15 af 48 bf bc 32 c3 be
       0.22191083 -0.22425683 -0.78392154 -0.38124645
0000a0 64 9e 79 bf 5d 28 50 bf 16 5f 4a be cb 41 17 be
       -0.9750731 -0.8131159 -0.19762835 -0.14771192
0000b0 7a 23 c5 be 89 7f ff be 95 cb 63 be 03 71 6e 3e
       -0.3850363 -0.4990199 -0.22245629 0.23285298
0000c0 24 a2 05 bf ca 41 d0 bd a1 01 0a 3f 33 7a 67 3f
       -0.5220053 -0.10168798 0.53908736 0.90420836
0000d0 b2 a6 5b bf 09 37 51 3f c0 96 bb bf 7d 96 aa be
       -0.8580123 0.817246 -1.465538 -0.33317938
0000e0 50 d4 95 bd 33 99 92 3f ef e2 8e bf f0 09 69 bf
       -0.07315886 1.1453003 -1.1163005 -0.9103079
0000f0 f0 77 72 bc f5 09 2d 3f a9 5a 80 3e 1d 2f f1 be
       -0.014799103 0.6759332 0.25069168 -0.47106257
000100 d5 6f 50 3e 56 6a d0 be 6f 07 f1 be 3f 86 fc be
       0.2035516 -0.40706128 -0.47075984 -0.49321172
000110 9e 16 84 3e 6f 4e 81 be c8 be 7d be f8 be 1d bf
       0.25798506 -0.25255153 -0.24779809 -0.6161952
000120 a9 95 06 3f a8 a1 a2 be 1b 5c 50 be c2 1b 8a bf
       0.52572113 -0.3176396 -0.20347635 -1.0789721
000130 cb 66 7f bf 51 db 4f 3f 2e 02 a3 bd 46 b4 94 bf
       -0.99766225 0.81194025 -0.079594 -1.1617515
000140 b7 4a 15 3f bd 70 b6 be 86 28 5f bf db 53 4d bf
       0.5831713 -0.35632887 -0.8717121 -0.8020608
000150 b3 f9 75 bf b7 af f6 be 4a 50 0f 3f 1f f9 9e 3f
       -0.96084136 -0.48180935 0.55981886 1.2419776
000160 88 19 7a 3d 6a e1 10 3f ae 2b 19 3f aa 4c 76 3f
       0.061059505 0.56593955 0.59832275 0.9621073
000170 2d 52 78 3d 9d 9d cd bc bb 76 5e be ba cb 80 3e
       0.060625244 -0.02509957 -0.2172498 0.2515543
000180 57 f4 ba be 27 03 07 bf be 7d 32 bf 82 c2 27 3f
       -0.36514542 -0.52739185 -0.6972312 0.6553117
000190 2c 77 af 3e ae 1a 2a be 02 d2 d0 3e db b7 e4 3e
       0.34270608 -0.1661174 0.40785223 0.4467152
0001a0 52 b1 d3 bf 8c f4 34 3e e5 c1 48 bf 7f 0f ac bf
       -1.6538489 0.17671412 -0.7842086 -1.3442229
0001b0 f5 bb 01 bf f9 78 12 bf b1 89 0e bf 12 41 1e bf
       -0.50677425 -0.5721584 -0.5567885 -0.6181804
0001c0 78 74 b1 3e 03 9b 30 bf ab 15 52 be 2e 2b f8 be
       0.3465917 -0.6898653 -0.20516078 -0.48470443
0001d0 1e f7 03 bf 56 89 42 be a3 5d ea bc de d6 0f 3f
       -0.51548946 -0.18997702 -0.028609103 0.56187236
0001e0 cd cd 5f bf 0f e7 f3 3e f1 a3 cb 3e 3b 25 f7 be
       -0.874234 0.4763722 0.39773515 -0.48270592
0001f0 81 df 90 3e d7 f1 32 be c6 58 f1 3e 9b 39 45 bf
       0.2829552 -0.17475067 0.4713804 -0.77041024
000200 81 c9 43 be 74 be cd be 74 e2 8f be 23 a9 03 bf
       -0.19119836 -0.40184367 -0.28102458 -0.5142996
000210 60 f7 96 3e 3f f5 b6 3e f1 be c9 be a0 98 0d bf
       0.29485607 0.35733983 -0.3940349 -0.5531101
000220 cd 67 96 bf 74 d4 33 bf 14 d0 77 bc da 69 9a be
       -1.1750427 -0.7024605 -0.015125293 -0.30158883
000230 c4 a7 d3 bb 47 4e 18 bf 20 ca f6 3e a4 fa 9d 3e
       -0.006459208 -0.5949444 0.48201084 0.30855286
000240 30 9c d8 be 97 02 4c bf af 48 1d be 64 04 05 3d
       -0.42306662 -0.7969145 -0.15359758 0.03247489
000250 bb fb 81 be cb 03 90 be 41 00 34 3f cf f6 36 3f
       -0.25387368 -0.28127894 0.7031289 0.7147035
000260 2a 7e 01 3f 90 79 15 bf 9e bb 85 bf 06 21 b2 be
       0.50583136 -0.58388615 -1.0447881 -0.3479082
000270 fc db ac 3d 3a be 60 3f 05 fc 8c bf b6 31 14 be
       0.08440396 0.8779026 -1.101441 -0.14472088
000280 10 f7 8c bf db b0 2f bf 0c ca 02 3f 5c 01 38 3f
       -1.1012897 -0.68629235 0.5108955 0.71877074
000290 7b 63 b4 3e 06 08 ba bd c9 76 09 be 43 d0 b9 be
       0.35232148 -0.090835616 -0.13424219 -0.36291704
0002a0 59 02 9b 3c bb 7f 54 bc 3e e8 a9 be d3 a0 06 bf
       0.018922018 -0.012969906 -0.33185 -0.5258915
0002b0 05 03 b8 be 87 a2 71 3e 11 56 42 bf ad 62 2e bd
       -0.35939804 0.23597156 -0.75912577 -0.042574573
0002c0 81 e2 b4 be a8 58 3e bf 79 aa 45 bf 65 f2 7e bf
       -0.3532906 -0.7435403 -0.77213246 -0.99588615
0002d0 6c 19 ae be 37 a7 31 bf ef 3b 6d 3e 3d 83 cb 3d
       -0.3400377 -0.69395775 0.23167394 0.09937141
0002e0 f2 88 41 be 66 17 6b be b6 9a 7a 3e 8e c2 13 3f
       -0.18899897 -0.22958145 0.2447308 0.5771874
0002f0 50 66 70 3f a0 01 82 bf 24 c9 35 3f ff cc 76 bf
       0.93906116 -1.0156746 0.7101004 -0.9640655
000300 c6 d6 0e bf cb ee 25 be 56 26 aa 3e 3e 3f 9f be
       -0.5579647 -0.16204374 0.33232373 -0.31102937
000310 cc f4 12 bf 1f 79 70 3e 64 ce 85 bf 49 fd de bd
       -0.5740478 0.23483704 -1.045361 -0.10888154
000320 a9 9a b8 be d8 d3 34 bf 3d 5a 6a bf 45 49 9f be
       -0.36055496 -0.7063575 -0.9154394 -0.31110588
000330 06 d3 eb 3c 0f bd 73 be 57 77 b1 be c8 35 51 bf
       0.028787147 -0.23802589 -0.34661362 -0.8172269
000340 af 87 4e be 64 2e 09 3e 03 ce 65 bf 43 5f 3e 3e
       -0.20168947 0.13396603 -0.89767474 0.18591027
000350 1b 13 75 3e a6 a4 a8 be c8 ce 27 be cf 59 11 bf
       0.2393307 -0.32938117 -0.16387475 -0.5677766
000360 34 71 09 bf 02 d6 12 bf bb ca 59 3f 57 ab 9f be
       -0.5368836 -0.573578 0.8507497 -0.3118541
000370 0e 67 cb be 28 c8 5f 3e d6 1d 43 bd e6 c3 54 be
       -0.39727062 0.21853697 -0.047635876 -0.20777854
000380 c2 1e d2 3e 12 2a b3 3e e5 d1 16 bf 67 0d 27 bc
       0.4103909 0.34993035 -0.58914024 -0.010196066
000390 58 ae e2 3d ea 2a 1e bf 73 fe 75 3f 73 7e 5e bf
       0.1106841 -0.6178423 0.96091384 -0.86911696
0003a0 cf 04 d9 be 82 eb 1c bf 31 46 99 be 23 3f de bc
       -0.4238648 -0.61296856 -0.29936364 -0.027129715
0003b0 a1 aa 0c 3f 3d 10 88 3e 9d 9b 0c 3f 18 2b 92 bf
       0.5494786 0.2657489 0.5492495 -1.1419401
0003c0 f0 ec b3 3d e9 d0 10 3f d4 3d 84 3f 14 db 1a 3f
       0.087854266 0.5656877 1.0331368 0.60490537
0003d0 b2 bf 90 3e 82 bb ab be f4 00 d1 be 3e 55 00 bf
       0.28271252 -0.33541495 -0.4082104 -0.5013007
0003e0 8a ea f3 be 94 48 cf bd b2 f8 57 bd 9e 9c 8a be
       -0.47639877 -0.10121265 -0.05272741 -0.27072614
0003f0 65 2b a9 be e6 bc 2e 3f 9b fb cc 3e d4 74 5c bf
       -0.3304092 0.68256986 0.4003571 -0.86115766

UncertaintyModule/MobilenetV3/expanded_conv_9/depthwise/depthwise_bias_fused_bn f4 [288]
000000 28 f7 83 be 91 79 43 bf 9a 5f 74 bd 5c 7e 36 bd
       -0.25774503 -0.7635737 -0.059661485 -0.0445541
000010 1e 93 a2 3f c5 f4 2e bd 1d 00 29 3f a2 01 70 3f
       1.2701147 -0.0427139 0.660158 0.9375249
000020 5e 5b 35 3f 2d 69 2a 3f 03 14 a4 3d c9 2f 00 3f
       0.7084254 0.66566736 0.080116294 0.50072914
000030 05 04 8d 3f 26 c2 b4 3c 3c e5 f6 3e 64 e1 62 3f
       1.1016852 0.022065233 0.48221767 0.8862517
000040 ee e1 c6 3d a6 d6 83 3f 5c b9 4e be 39 f1 a4 3f
       0.097110614 1.029988 -0.20187896 1.2886115
000050 48 59 f7 bd 47 3d 55 3f 07 70 a4 3f 6e 74 4c 3f
       -0.12077576 0.83296627 1.2846688 0.7986516
000060 da b8 14 3e 75 88 11 3f fa 2c 03 bf ee eb d7 3e
       0.1452364 0.5684884 -0.51240504 0.42172188
000070 72 31 06 be b6 a8 de bd c1 72 0d 3f 12 58 d0 3e
       -0.131048 -0.10872023 0.55253226 0.40692192
000080 b6 52 81 3f 17 c4 7e be 28 0b 8c 3f d4 1b 55 be
       1.0103366 -0.2487949 1.0940905 -0.20811397
000090 8c e1 42 bd cc 29 bb bd e5 e2 26 be 49 b2 85 3f
       -0.04757838 -0.091388315 -0.16297491 1.0445033
0000a0 2d e2 cf 3e 23 32 95 3f 05 e0 8d 3d b3 0d 90 be
       0.40602246 1.1655926 0.06927494 -0.28135452
0000b0 90 51 3b be 4c b2 03 bf 27 fa d2 be db 96 ee be
       -0.18292832 -0.51443934 -0.41206476 -0.4659947
0000c0 a1 35 01 bf 6d 42 47 be 73 98 3e 3f 81 f6 17 be
       -0.50472456 -0.19458933 0.7445137 -0.14840128
0000d0 cb 50 04 bf 67 73 91 3f 14 57 81 bd 56 64 6c 3f
       -0.5168578 1.1363343 -0.06315437 0.923406
0000e0 fa 85 49 bd a6 3c 5c 3d 9e ce f9 be 2d 46 f5 be
       -0.049200036 0.053768776 -0.4879045 -0.47905102
0000f0 33 60 42 3f 6e 78 24 3e e1 44 c5 3e 9c c1 53 bd
       0.7592804 0.16061565 0.38529113 -0.051698312
000100 87 7a 56 3f 6a 69 74 3f 51 46 8a 3e ae 7a 28 3f
       0.8378071 0.9547335 0.27006772 0.65812194
000110 fa e8 21 3f fc 23 c8 bc d7 58 60 3e c0 24 65 bd
       0.6324612 -0.024431221 0.2190889 -0.05594325
000120 ce 2c 14 3f 66 04 04 3f 5f 1c 2a 3f 36 32 b6 3e
       0.57880867 0.5156921 0.6644954 0.35585183
000130 8c 69 13 3f fb 62 c5 be 07 52 60 3f e7 37 cb 3f
       0.57582927 -0.3855208 0.87625164 1.5876435
000140 34 d4 7a 3d 96 e7 9e be 24 2a 23 be cf 14 47 bf
       0.06123753 -0.3103606 -0.15934044 -0.77766126
000150 fa 92 be bd 74 52 36 be d9 08 76 3d ee c8 57 3f
       -0.09305377 -0.17804891 0.06006703 0.8429097
000160 76 b8 8c 3e 0e e6 80 be b1 87 fc 3e d8 40 8f 3e
       0.27484483 -0.25175518 0.49322274 0.2797916
000170 09 b8 42 3f 71 c3 66 bf 65 b0 2f bd f4 e1 cb 3d
       0.76062065 -0.9014197 -0.042892832 0.099552065
000180 be a1 92 bf 17 08 0f be 58 14 42 bd a1 f2 ae 3f
       -1.145561 -0.1396793 -0.047382683 1.3667794
000190 23 da ca 3d e9 48 88 3e 73 ae 94 be 10 5f 1b bf
       0.099048875 0.26618126 -0.29039344 -0.6069193
0001a0 bc 8a bb bd a2 1a 26 3f 1f 3e fa 3e c6 be dc 3e
       -0.09157321 0.6488439 0.4887552 0.431143
0001b0 7c d6 4b 3f f0 76 a0 3e 1e 02 31 bf b7 1b fd 3e
       0.7962415 0.31340742 -0.69143856 0.49435207
0001c0 bf 63 8a 3f 15 15 fd bd 02 df bf be f4 f1 4f 3f
       1.081169 -0.12357537 -0.3747483 0.81228566
0001d0 ca a6 6c 3f da 81 2b bf 48 aa a0 be 09 95 95 be
       0.92442 -0.6699501 -0.31379914 -0.29215267
0001e0 c6 8a 98 be 24 81 96 3e 7b 9b 71 3f 71 89 a0 3e
       -0.29793376 0.293954 0.9437787 0.3135486
0001f0 62 f2 7f bd 8a c2 27 bf f6 7b cc 3e d2 b2 2b 3e
       -0.062487014 -0.6553122 0.39938325 0.16767433
000200 e5 b7 37 3f ea 4a 9b 3f 41 f9 7e 3e 17 35 2e 3f
       0.71764976 1.2132237 0.2489977 0.6804976
000210 2b 0d bf 3e 77 70 00 3d f6 73 65 3f ff 52 d0 3e
       0.37314734 0.031357255 0.8963007 0.4068832
000220 ec 8d ce bd 54 a5 2f 3e 2f 9a 86 3f ce b1 e3 bc
       -0.10085663 0.17152911 1.0515803 -0.027794745
000230 59 8c a4 3e d0 80 d3 39 df 64 ab bf 59 d0 e5 3c
       0.32138327 0.0004034103 -1.3390158 0.02805345
000240 b0 47 60 3f ca 72 bd 3e 79 13 9b be ab 42 2b bd
       0.87609386 0.3700164 -0.30288294 -0.041811626
000250 25 a0 0f bf 55 fb 6a bf 13 c9 9b 3e 17 89 75 3e
       -0.56103736 -0.9178975 0.30426845 0.23978077
000260 05 4e 8c be 8a e6 85 3f 42 78 9f 3f 84 bc 0d 3f
       -0.27403274 1.046098 1.2458575 0.55365777
000270 ea 3d dd be 1e 9d 19 bf 88 71 bd be 1f 1e 6c be
       -0.432113 -0.60005367 -0.3700068 -0.23058365
000280 b6 08 49 3d 11 4d f4 3d b8 16 61 bf 29 3b fc be
       0.049080573 0.11928762 -0.8792529 -0.49263886
000290 fd 68 85 3f f4 23 14 bd 5b 41 15 3f 5c 08 7d bf
       1.0422665 -0.0361671 0.5830285 -0.9884088
0002a0 af 27 a0 3e 25 97 79 3e d4 c5 3a bf 70 12 00 3d
       0.31280276 0.24374063 -0.7295811 0.031267583
0002b0 09 9e 5c bd 29 57 14 bd 0d 59 27 be b4 59 ab 3e
       -0.05386165 -0.036215935 -0.16342564 0.33466876
0002c0 5e 07 98 3e 82 de 55 be 05 c9 00 3f 0c 17 11 bf
       0.2969312 -0.20885661 0.5030673 -0.5667579
0002d0 66 00 60 3e 6d 42 37 3f 39 35 07 3c 17 b0 3a 3e
       0.21875152 0.7158573 0.008252435 0.18231235
0002e0 4c d6 07 3e 5b bb b6 3f 9d c3 6c 3f 03 1a bf 3d
       0.13265342 1.4275926 0.9248598 0.09331133
0002f0 d5 1b b7 3f f6 a3 a0 3d 4a d0 03 3f ab 7a ac 3b
       1.4305369 0.07843773 0.514897 0.0052636466
000300 06 55 88 be 49 40 c2 3e 40 60 31 3f ee f8 92 bd
       -0.26627368 0.3793967 0.6928749 -0.07176386
000310 c8 57 9e be f8 12 fd be ed 2a 4e bd de f7 ee 3d
       -0.30926347 -0.49428535 -0.050333906 0.11668371
000320 97 5b 86 3f 88 46 7f 3f 3b fe a6 be 7a ea 11 bf
       1.0496701 0.99717 -0.32615837 -0.5699841
000330 2d cb 3c bf fb 54 85 be e2 1e ae 3e 12 b7 9b bc
       -0.7374752 -0.26041397 0.34007937 -0.019008193
000340 cd 76 8b be ef c3 2e bf ea d4 b4 bd 56 de a0 3f
       -0.27239075 -0.6826772 -0.08829673 1.2567852
000350 1c 60 15 3e 20 59 d8 3e a2 a1 85 3f 7d 0f 9f 3d
       0.14587444 0.42255497 1.0439951 0.07766626
000360 6f d4 93 3f e5 d5 9d 3e 72 51 94 3e 80 03 50 3f
       1.1549205 0.3082725 0.28968388 0.8125534
000370 cf c7 3e 3f 08 91 15 be 29 48 1f 3d 17 15 08 bf
       0.74523634 -0.14606106 0.038887177 -0.5315718
000380 a3 2e 90 bf 07 53 c2 3e 50 14 a6 bd a0 65 3b 3f
       -1.1264232 0.3795397 -0.08109343 0.7320194
000390 df 83 d6 be 0c 62 e2 be 9c d2 52 3f f4 8b 2a 3e
       -0.41897485 -0.4421543 0.82352614 0.1665495
0003a0 db dc 1e be 55 a3 a3 3f 24 ec 74 3f c8 3e da 3d
       -0.15513937 1.278422 0.9567282 0.10656506
0003b0 c9 da df 3e de 68 02 bf 28 d0 e5 3e 2a aa 70 3d
       0.43721607 -0.50941265 0.44885373 0.05875603
0003c0 04 c3 a2 3f 84 c8 b6 3d c3 4c 89 3e cb f8 fa bc
       1.2715764 0.08924964 0.26816377 -0.030636212
0003d0 8c 79 a5 bd d9 8b 10 3f 06 f4 94 bd 63 f5 64 bd
       -0.08079824 0.5646339 -0.07273106 -0.05589808
0003e0 e2 06 11 bf 06 af 73 3d 31 42 66 3f 11 35 f1 3d
       -0.5665113 0.059493087 0.8994475 0.117777
0003f0 e9 60 52 be c8 51 52 3d e9 39 55 3e 6a a3 ea bd
       -0.20544781 0.051347524 0.20822872 -0.1145695

UncertaintyModule/MobilenetV3/expanded_conv_8/project/Conv2D_weights_fused_bn f4 [48, 144, 1, 1]
000000 2e 3d cc 3d d4 f4 b4 3d 53 e5 bb 3b 99 a8 02 3e
       0.099726066 0.0883576 0.0057341247 0.12759627
000010 ce 20 b5 3c 12 0f ae bb 16 38 17 bd 9c 43 a5 bc
       0.022110369 -0.005311855 -0.036918722 -0.02017384
000020 5e 25 c9 bd a2 0c 03 3b 2e a7 26 3e b2 5d ed 3d
       -0.0982158 0.0019996543 0.16274711 0.115901366
000030 c2 5e 56 bc f5 13 de bc 73 61 d3 bd f8 92 dc bc
       -0.013084115 -0.027109126 -0.10321321 -0.026925549
000040 4d 40 13 bd b0 04 26 3c e6 c6 75 bd df d4 81 3d
       -0.035949994 0.0101329535 -0.060004137 0.0633943
000050 47 f8 73 bd 43 f0 5b bd e5 b5 4e be 49 1a 93 3c
       -0.059562948 -0.05369593 -0.20186575 0.01795687
000060 5e 46 02 3d a5 99 87 bc dc 74 a6 3d 17 81 a6 3c
       0.03180539 -0.016552756 0.08127758 0.020325227
000070 9a d4 c8 bc f2 36 b5 bc 6c f7 19 bd 77 47 75 bc
       -0.024515439 -0.022120927 -0.037589476 -0.014970652
000080 3a 31 07 3d 4c 92 7e bd 8b 7e 0d be 61 4d 12 be
       0.03300593 -0.06215124 -0.13817804 -0.1428733
000090 51 9a 08 bd 6d 61 05 3d 1c 25 02 3d 2a 19 09 3d
       -0.033350293 0.032563616 0.03177367 0.033471264
0000a0 3c c9 13 3d ae 32 0d bd fd 93 fe bd 8a 4b 97 3c
       0.036080584 -0.03447216 -0.1243057 0.018468637
0000b0 7b ea 92 bd 01 b7 bd bd a8 71 c0 3d ba ff 1d be
       -0.0717363 -0.09263421 0.09396678 -0.15429583
0000c0 5a f4 2c bd 6e d9 28 3b ad cb 6f bd 5d 07 b9 bc
       -0.04222522 0.0025764364 -0.05854385 -0.022586519
0000d0 1b 3f 15 3e 55 81 b0 bd e2 19 ea bd 64 33 7d bc
       0.14574854 -0.08618418 -0.11430718 -0.015454147
0000e0 fa 08 1c bd 46 56 44 3e 53 af a8 3c 7c a7 8b bc
       -0.0380945 0.19173536 0.020591414 -0.017047636
0000f0 6d e8 9e 3d 44 87 70 bd a6 0d bf bd 58 6c 28 3b
       0.077591754 -0.05872275 -0.09328775 0.0025699344
000100 0e 44 a3 bd 72 27 0e 3d 5d 83 43 bd d5 2f 06 bd
       -0.07971965 0.034705587 -0.0477327 -0.03276046
000110 61 c5 b1 bc cf 10 6b bc d7 8a 32 be 6b cc e3 3d
       -0.021700563 -0.014347269 -0.17435776 0.11122974
000120 72 96 c5 bd ed c1 cf bd 95 67 d0 3d d5 5f 15 be
       -0.09647836 -0.1014441 0.10176007 -0.14587338
000130 04 87 f5 bd 4a 88 66 3d fe 4a c7 bd 6a a2 84 3d
       -0.11988643 0.05628232 -0.097311005 0.064762905
000140 19 24 08 3e 89 85 c3 3d ac 1e 61 bc a8 b3 8e 3b
       0.1329502 0.09546954 -0.013740223 0.004354913
000150 9f e1 d2 bc b4 8b 11 be 3e a1 f5 3a 14 cd d6 3d
       -0.02574235 -0.14213449 0.001874007 0.10488334
000160 e9 d2 15 3e 92 c7 13 b9 65 c5 a0 3d 4c 87 21 3e
       0.14631237 -0.00014093358 0.0785015 0.15774268
000170 61 62 9a bd af 2a 94 bd c9 61 c5 3d f7 24 04 be
       -0.075382955 -0.07234704 0.09637792 -0.12904726
000180 29 4a cd 3a ea da 6b 3c 39 a6 d2 3c 14 bc 5b 3d
       0.001566236 0.014395455 0.025714027 0.053646162
000190 61 d3 4b 3d b3 00 e0 b8 bd 82 cc bc 32 2c a4 bd
       0.049762134 -0.000106812826 -0.024964685 -0.08016242
0001a0 5c 70 19 bd 00 f8 bd 3d e1 17 d1 3d d7 30 07 be
       -0.03746067 0.09275818 0.10209633 -0.13202225
0001b0 0c e2 07 3e 86 3b 83 bd 6d 8b ac 3d ab c5 0c 3e
       0.13269824 -0.064078376 0.08425031 0.1374728
0001c0 4c 24 78 bd 3c 80 ad 3d 2d 72 b0 3c 3f ce bd bd
       -0.06058149 0.084717244 0.021538818 -0.09267854
0001d0 be 9e 23 3d 03 55 2c 3e fe 21 c6 bd 29 11 84 bd
       0.03994631 0.16829304 -0.09674452 -0.064485855
0001e0 07 93 7c 3d 27 75 aa bd 57 2e 81 3d d0 63 44 bd
       0.061663654 -0.08323126 0.06307667 -0.04794675
0001f0 c1 4e ba bd 54 02 ce bc f4 55 29 bd dd e6 da bc
       -0.09097052 -0.025147595 -0.041341737 -0.026721412
000200 8f c6 ec 3d cc fd 91 3d e7 e3 60 bd 04 26 b7 bd
       0.115613095 0.07128486 -0.054904845 -0.08942798
000210 dd 1c 08 3e a5 8f e7 bd e7 f1 a0 bc de 5e c3 3c
       0.1329226 -0.11306695 -0.019646598 0.023848947
000220 75 fc 45 bd 8e be 90 3d ee 46 36 3c 67 4c ac bd
       -0.048336465 0.070675954 0.011125309 -0.0841301
000230 77 64 6a bd 49 2c d8 3c 91 36 93 3b 0f d2 24 3e
       -0.057224717 0.026388304 0.004492589 0.16095756
000240 8e fb e0 bd 7f 76 e3 bd dc ce 8f bb 33 46 98 bc
       -0.1098548 -0.11106586 -0.004388673 -0.018588161
000250 a9 e9 80 3d de 1b f0 3c 5a 48 cd 3d d3 d2 bb 3c
       0.06294567 0.029310163 0.100235656 0.022927677
000260 f5 26 e0 bd 6b f7 0c be 71 df ba 3d 7b ba 85 bc
       -0.109449305 -0.13766257 0.09124649 -0.016324272
000270 43 40 97 bd 0c 5e ef bb 42 53 83 bd fe 74 31 be
       -0.07385304 -0.0073049124 -0.064123645 -0.17329785
000280 11 7f 40 bd 4a b4 82 3c be 3e a2 3d a2 c5 b3 bb
       -0.04699618 0.01595511 0.079221234 -0.005486206
000290 96 72 c7 bd 1d c1 ce bd 6d fa 5f bb 2c a1 56 bd
       -0.097386524 -0.10095427 -0.0034176365 -0.0523998
0002a0 59 08 15 be f2 ab d9 bb 4c 6f 11 be 43 5c 1f 3e
       -0.14553966 -0.006642812 -0.14202613 0.15562539
0002b0 91 e9 a1 bd af 41 a8 3b f1 d9 09 3d 64 24 8d bd
       -0.079058774 0.005134783 0.03365511 -0.068917066
0002c0 83 c8 ab bb 59 dc eb bc 87 86 53 be 38 4e e5 3c
       -0.0052424087 -0.028791593 -0.20656787 0.0279914
0002d0 b6 bf ed bd 4f cc 38 be 53 6f 81 3c 29 2b 0d bd
       -0.116088316 -0.18046688 0.015800154 -0.03446499
0002e0 0a 32 52 be a9 a8 ba 3c fa b3 48 bd 0a 23 19 be
       -0.20526901 0.022785502 -0.048999764 -0.14954773
0002f0 ad 82 f7 3c 2f c4 68 3c 24 77 d6 3d 41 c5 d7 3d
       0.030213678 0.01420693 0.10471943 0.1053567
000300 0f 2b 87 bb 06 a4 a0 bd 21 8c cc bd 76 34 30 3c
       -0.004125006 -0.07843785 -0.09987665 0.010754695
000310 95 de 59 be bf b7 78 3d 28 99 08 be 00 15 96 bd
       -0.21276315 0.06072211 -0.13339674 -0.07328224
000320 9d 81 bc 3d b6 6f a8 3d 5d 40 46 bd dd ec 09 3d
       0.09204409 0.08224432 -0.048401225 0.033673156
000330 d2 71 e7 bd 46 7d 06 3d ae 43 ce 3d 4c c6 b8 bd
       -0.113010064 0.032834314 0.100715026 -0.09022197
000340 0f a6 a1 bd 74 13 d4 3c f3 90 62 bd 2a 43 dc bc
       -0.07893001 0.025888182 -0.055314016 -0.026887495
000350 f9 25 6d 3d f9 c6 34 3d d7 d0 b1 3d c1 f7 e8 bd
       0.05789754 0.044135068 0.08682411 -0.1137538
000360 f9 7d 2e 3e 17 da 46 bd 24 1c 2c 3d 2b e2 18 3d
       0.17040242 -0.04854783 0.042019024 0.037325066
000370 4a eb 76 3c a3 4f c6 bd 39 02 0e be 0e 3b b8 3c
       0.015070746 -0.09683158 -0.13868035 0.022489097
000380 e5 0e 49 bc 88 ec be bc 35 49 33 bd c9 6c a6 bd
       -0.012271618 -0.023306146 -0.043770988 -0.08126218
000390 ac 79 18 be b8 16 e4 3b 97 e8 af 3c 49 2a 59 bc
       -0.14890164 0.006960716 0.021473212 -0.0132547105
0003a0 52 e9 a1 3d fc 13 2b 3d 92 02 d3 3c 79 be f8 3d
       0.079058304 0.041767105 0.025758062 0.12145705
0003b0 a1 27 9a 3c ce 23 e7 3d 7c d3 ab 3c c9 73 0e 3e
       0.018817725 0.11286126 0.020974867 0.13911356
0003c0 78 5d 42 3d 97 9c d8 3d 26 f0 de 39 3a b6 d0 bb
       0.04745242 0.10576742 0.00042522064 -0.0063693793
0003d0 eb 1b 60 bd 54 2f d3 3c 00 32 fb 3b 7a 1f 60 3d
       -0.054714125 0.025779404 0.0076658726 0.05471752
0003e0 da ad 57 3d bd f8 20 bd 4d b1 5a be d5 dd b3 3d
       0.052656032 -0.039299715 -0.21356697 0.087825455
0003f0 a3 06 85 bd 7e 11 26 be 05 2a 0c bd 56 a9 44 bd
       -0.064954065 -0.1621761 -0.03421976 -0.048013054

UncertaintyModule/MobilenetV3/expanded_conv_8/project/Conv2D_bias_fused_bn f4 [48]
000000 91 67 5d 3e 38 46 71 3f 14 66 1b 3f 3b 1f 4f 3f
       0.21621539 0.9424777 0.60702634 0.8090703
000010 6a 35 da 3e 9f 94 b4 3e 98 2d ea be ce a9 8b 3d
       0.42618877 0.3526964 -0.4573791 0.06819497
000020 ba a0 89 3e b2 14 9f be 30 06 5c 3e 85 a4 70 bf
       0.26880437 -0.31070477 0.21486735 -0.94001037
000030 3e d6 33 be 49 67 54 be cc 3b 84 3e dc c8 f9 be
       -0.17562196 -0.20742525 0.2582687 -0.48786056
000040 d1 f4 0a 3f c4 da 1d be 13 44 75 3e a5 f4 38 3e
       0.5427981 -0.15415484 0.2395175 0.18062074
000050 7e 19 39 be 22 a5 cc bd 7b 36 95 3e b2 96 80 3e
       -0.18076131 -0.09992434 0.29143128 0.2511497
000060 91 a2 81 be 61 dd f4 be c0 5a a4 bd 30 5d 0d 3f
       -0.2531934 -0.4782515 -0.08025122 0.5522032
000070 0f f9 2f 3d 18 2a 1b 3f b1 a6 82 3d ee 5c dc 3e
       0.04296213 0.60611105 0.0637945 0.4303965
000080 47 80 4b 3d 23 73 44 bf ae 36 7f 3e b4 60 ab be
       0.04968288 -0.76738185 0.24923202 -0.33472216
000090 7e 8f 28 bf b7 ad 6e 3d 2a 82 93 be a8 3d 24 3f
       -0.6584395 0.058271136 -0.28810245 0.6415658
0000a0 21 9b 24 bf f2 2e 2f 3f 07 85 8b be 75 22 c9 3e
       -0.6429921 0.6843101 -0.2724993 0.392841
0000b0 9c 4e a6 be f6 71 e6 be 9d 12 1e be 73 c6 e6 3d
       -0.3248185 -0.4500882 -0.15436788 0.1126832
